UNet2DConditionModel(
  (conv_in): Conv2d(4, 320, kernel_size=(3, 3), stride=(1, 1), padding=(1, 1))
  (time_proj): Timesteps()
  (time_embedding): TimestepEmbedding(
    (linear_1): LoRACompatibleLinear(in_features=320, out_features=1280, bias=True)
    (act): SiLU()
    (linear_2): LoRACompatibleLinear(in_features=1280, out_features=1280, bias=True)
  )
  (down_blocks): ModuleList(
    (0): CrossAttnDownBlock2D(
      (attentions): ModuleList(
        (0-1): 2 x Transformer2DModel(
          (norm): GroupNorm(32, 320, eps=1e-06, affine=True)
          (proj_in): LoRACompatibleConv(320, 320, kernel_size=(1, 1), stride=(1, 1))
          (transformer_blocks): ModuleList(
            (0): BasicTransformerBlock(
              (norm1): LayerNorm((320,), eps=1e-05, elementwise_affine=True)
              (attn1): Attention(
                (to_q): LoraInjectedLinear(
                  (linear): Linear(in_features=320, out_features=320, bias=False)
                  (lora_down): Linear(in_features=320, out_features=1, bias=False)
                  (dropout): Dropout(p=0.1, inplace=False)
                  (lora_up): Linear(in_features=1, out_features=320, bias=False)
                  (selector): Identity()
                )
                (to_k): LoraInjectedLinear(
                  (linear): Linear(in_features=320, out_features=320, bias=False)
                  (lora_down): Linear(in_features=320, out_features=1, bias=False)
                  (dropout): Dropout(p=0.1, inplace=False)
                  (lora_up): Linear(in_features=1, out_features=320, bias=False)
                  (selector): Identity()
                )
                (to_v): LoraInjectedLinear(
                  (linear): Linear(in_features=320, out_features=320, bias=False)
                  (lora_down): Linear(in_features=320, out_features=1, bias=False)
                  (dropout): Dropout(p=0.1, inplace=False)
                  (lora_up): Linear(in_features=1, out_features=320, bias=False)
                  (selector): Identity()
                )
                (to_out): ModuleList(
                  (0): LoraInjectedLinear(
                    (linear): Linear(in_features=320, out_features=320, bias=True)
                    (lora_down): Linear(in_features=320, out_features=1, bias=False)
                    (dropout): Dropout(p=0.1, inplace=False)
                    (lora_up): Linear(in_features=1, out_features=320, bias=False)
                    (selector): Identity()
                  )
                  (1): Dropout(p=0.0, inplace=False)
                )
              )
              (norm2): LayerNorm((320,), eps=1e-05, elementwise_affine=True)
              (attn2): Attention(
                (to_q): LoraInjectedLinear(
                  (linear): Linear(in_features=320, out_features=320, bias=False)
                  (lora_down): Linear(in_features=320, out_features=1, bias=False)
                  (dropout): Dropout(p=0.1, inplace=False)
                  (lora_up): Linear(in_features=1, out_features=320, bias=False)
                  (selector): Identity()
                )
                (to_k): LoraInjectedLinear(
                  (linear): Linear(in_features=768, out_features=320, bias=False)
                  (lora_down): Linear(in_features=768, out_features=1, bias=False)
                  (dropout): Dropout(p=0.1, inplace=False)
                  (lora_up): Linear(in_features=1, out_features=320, bias=False)
                  (selector): Identity()
                )
                (to_v): LoraInjectedLinear(
                  (linear): Linear(in_features=768, out_features=320, bias=False)
                  (lora_down): Linear(in_features=768, out_features=1, bias=False)
                  (dropout): Dropout(p=0.1, inplace=False)
                  (lora_up): Linear(in_features=1, out_features=320, bias=False)
                  (selector): Identity()
                )
                (to_out): ModuleList(
                  (0): LoraInjectedLinear(
                    (linear): Linear(in_features=320, out_features=320, bias=True)
                    (lora_down): Linear(in_features=320, out_features=1, bias=False)
                    (dropout): Dropout(p=0.1, inplace=False)
                    (lora_up): Linear(in_features=1, out_features=320, bias=False)
                    (selector): Identity()
                  )
                  (1): Dropout(p=0.0, inplace=False)
                )
              )
              (norm3): LayerNorm((320,), eps=1e-05, elementwise_affine=True)
              (ff): FeedForward(
                (net): ModuleList(
                  (0): GEGLU(
                    (proj): LoraInjectedLinear(
                      (linear): Linear(in_features=320, out_features=2560, bias=True)
                      (lora_down): Linear(in_features=320, out_features=1, bias=False)
                      (dropout): Dropout(p=0.1, inplace=False)
                      (lora_up): Linear(in_features=1, out_features=2560, bias=False)
                      (selector): Identity()
                    )
                  )
                  (1): Dropout(p=0.0, inplace=False)
                  (2): LoRACompatibleLinear(in_features=1280, out_features=320, bias=True)
                )
              )
            )
          )
          (proj_out): LoRACompatibleConv(320, 320, kernel_size=(1, 1), stride=(1, 1))
…
          (conv2): LoRACompatibleConv(320, 320, kernel_size=(3, 3), stride=(1, 1), padding=(1, 1))
          (nonlinearity): SiLU()
        )
      )
      (downsamplers): ModuleList(
        (0): Downsample2D(
          (conv): LoRACompatibleConv(320, 320, kernel_size=(3, 3), stride=(2, 2), padding=(1, 1))
        )
      )
    )
    (1): CrossAttnDownBlock2D(
      (attentions): ModuleList(
        (0-1): 2 x Transformer2DModel(
          (norm): GroupNorm(32, 640, eps=1e-06, affine=True)
          (proj_in): LoRACompatibleConv(640, 640, kernel_size=(1, 1), stride=(1, 1))
          (transformer_blocks): ModuleList(
            (0): BasicTransformerBlock(
              (norm1): LayerNorm((640,), eps=1e-05, elementwise_affine=True)
              (attn1): Attention(
                (to_q): LoraInjectedLinear(
                  (linear): Linear(in_features=640, out_features=640, bias=False)
                  (lora_down): Linear(in_features=640, out_features=1, bias=False)
                  (dropout): Dropout(p=0.1, inplace=False)
                  (lora_up): Linear(in_features=1, out_features=640, bias=False)
                  (selector): Identity()
                )
                (to_k): LoraInjectedLinear(
                  (linear): Linear(in_features=640, out_features=640, bias=False)
                  (lora_down): Linear(in_features=640, out_features=1, bias=False)
                  (dropout): Dropout(p=0.1, inplace=False)
                  (lora_up): Linear(in_features=1, out_features=640, bias=False)
                  (selector): Identity()
                )
                (to_v): LoraInjectedLinear(
                  (linear): Linear(in_features=640, out_features=640, bias=False)
                  (lora_down): Linear(in_features=640, out_features=1, bias=False)
                  (dropout): Dropout(p=0.1, inplace=False)
                  (lora_up): Linear(in_features=1, out_features=640, bias=False)
                  (selector): Identity()
                )
                (to_out): ModuleList(
                  (0): LoraInjectedLinear(
                    (linear): Linear(in_features=640, out_features=640, bias=True)
                    (lora_down): Linear(in_features=640, out_features=1, bias=False)
                    (dropout): Dropout(p=0.1, inplace=False)
                    (lora_up): Linear(in_features=1, out_features=640, bias=False)
                    (selector): Identity()
                  )
                  (1): Dropout(p=0.0, inplace=False)
                )
              )
              (norm2): LayerNorm((640,), eps=1e-05, elementwise_affine=True)
              (attn2): Attention(
                (to_q): LoraInjectedLinear(
                  (linear): Linear(in_features=640, out_features=640, bias=False)
                  (lora_down): Linear(in_features=640, out_features=1, bias=False)
                  (dropout): Dropout(p=0.1, inplace=False)
                  (lora_up): Linear(in_features=1, out_features=640, bias=False)
                  (selector): Identity()
                )
                (to_k): LoraInjectedLinear(
                  (linear): Linear(in_features=768, out_features=640, bias=False)
                  (lora_down): Linear(in_features=768, out_features=1, bias=False)
                  (dropout): Dropout(p=0.1, inplace=False)
                  (lora_up): Linear(in_features=1, out_features=640, bias=False)
                  (selector): Identity()
                )
                (to_v): LoraInjectedLinear(
                  (linear): Linear(in_features=768, out_features=640, bias=False)
                  (lora_down): Linear(in_features=768, out_features=1, bias=False)
                  (dropout): Dropout(p=0.1, inplace=False)
                  (lora_up): Linear(in_features=1, out_features=640, bias=False)
                  (selector): Identity()
                )
                (to_out): ModuleList(
                  (0): LoraInjectedLinear(
                    (linear): Linear(in_features=640, out_features=640, bias=True)
                    (lora_down): Linear(in_features=640, out_features=1, bias=False)
                    (dropout): Dropout(p=0.1, inplace=False)
                    (lora_up): Linear(in_features=1, out_features=640, bias=False)
                    (selector): Identity()
                  )
                  (1): Dropout(p=0.0, inplace=False)
                )
              )
              (norm3): LayerNorm((640,), eps=1e-05, elementwise_affine=True)
              (ff): FeedForward(
                (net): ModuleList(
                  (0): GEGLU(
                    (proj): LoraInjectedLinear(
                      (linear): Linear(in_features=640, out_features=5120, bias=True)
                      (lora_down): Linear(in_features=640, out_features=1, bias=False)
                      (dropout): Dropout(p=0.1, inplace=False)
                      (lora_up): Linear(in_features=1, out_features=5120, bias=False)
                      (selector): Identity()
                    )
                  )
                  (1): Dropout(p=0.0, inplace=False)
                  (2): LoRACompatibleLinear(in_features=2560, out_features=640, bias=True)
                )
              )
            )
          )
          (proj_out): LoRACompatibleConv(640, 640, kernel_size=(1, 1), stride=(1, 1))
…
          (conv2): LoRACompatibleConv(640, 640, kernel_size=(3, 3), stride=(1, 1), padding=(1, 1))
          (nonlinearity): SiLU()
        )
      )
      (downsamplers): ModuleList(
        (0): Downsample2D(
          (conv): LoRACompatibleConv(640, 640, kernel_size=(3, 3), stride=(2, 2), padding=(1, 1))
        )
      )
    )
    (2): CrossAttnDownBlock2D(
      (attentions): ModuleList(
        (0-1): 2 x Transformer2DModel(
          (norm): GroupNorm(32, 1280, eps=1e-06, affine=True)
          (proj_in): LoRACompatibleConv(1280, 1280, kernel_size=(1, 1), stride=(1, 1))
          (transformer_blocks): ModuleList(
            (0): BasicTransformerBlock(
              (norm1): LayerNorm((1280,), eps=1e-05, elementwise_affine=True)
              (attn1): Attention(
                (to_q): LoraInjectedLinear(
                  (linear): Linear(in_features=1280, out_features=1280, bias=False)
                  (lora_down): Linear(in_features=1280, out_features=1, bias=False)
                  (dropout): Dropout(p=0.1, inplace=False)
                  (lora_up): Linear(in_features=1, out_features=1280, bias=False)
                  (selector): Identity()
                )
                (to_k): LoraInjectedLinear(
                  (linear): Linear(in_features=1280, out_features=1280, bias=False)
                  (lora_down): Linear(in_features=1280, out_features=1, bias=False)
                  (dropout): Dropout(p=0.1, inplace=False)
                  (lora_up): Linear(in_features=1, out_features=1280, bias=False)
                  (selector): Identity()
                )
                (to_v): LoraInjectedLinear(
                  (linear): Linear(in_features=1280, out_features=1280, bias=False)
                  (lora_down): Linear(in_features=1280, out_features=1, bias=False)
                  (dropout): Dropout(p=0.1, inplace=False)
                  (lora_up): Linear(in_features=1, out_features=1280, bias=False)
                  (selector): Identity()
                )
                (to_out): ModuleList(
                  (0): LoraInjectedLinear(
                    (linear): Linear(in_features=1280, out_features=1280, bias=True)
                    (lora_down): Linear(in_features=1280, out_features=1, bias=False)
                    (dropout): Dropout(p=0.1, inplace=False)
                    (lora_up): Linear(in_features=1, out_features=1280, bias=False)
                    (selector): Identity()
                  )
                  (1): Dropout(p=0.0, inplace=False)
                )
              )
              (norm2): LayerNorm((1280,), eps=1e-05, elementwise_affine=True)
              (attn2): Attention(
                (to_q): LoraInjectedLinear(
                  (linear): Linear(in_features=1280, out_features=1280, bias=False)
                  (lora_down): Linear(in_features=1280, out_features=1, bias=False)
                  (dropout): Dropout(p=0.1, inplace=False)
                  (lora_up): Linear(in_features=1, out_features=1280, bias=False)
                  (selector): Identity()
                )
                (to_k): LoraInjectedLinear(
                  (linear): Linear(in_features=768, out_features=1280, bias=False)
                  (lora_down): Linear(in_features=768, out_features=1, bias=False)
                  (dropout): Dropout(p=0.1, inplace=False)
                  (lora_up): Linear(in_features=1, out_features=1280, bias=False)
                  (selector): Identity()
                )
                (to_v): LoraInjectedLinear(
                  (linear): Linear(in_features=768, out_features=1280, bias=False)
                  (lora_down): Linear(in_features=768, out_features=1, bias=False)
                  (dropout): Dropout(p=0.1, inplace=False)
                  (lora_up): Linear(in_features=1, out_features=1280, bias=False)
                  (selector): Identity()
                )
                (to_out): ModuleList(
                  (0): LoraInjectedLinear(
                    (linear): Linear(in_features=1280, out_features=1280, bias=True)
                    (lora_down): Linear(in_features=1280, out_features=1, bias=False)
                    (dropout): Dropout(p=0.1, inplace=False)
                    (lora_up): Linear(in_features=1, out_features=1280, bias=False)
                    (selector): Identity()
                  )
                  (1): Dropout(p=0.0, inplace=False)
                )
              )
              (norm3): LayerNorm((1280,), eps=1e-05, elementwise_affine=True)
              (ff): FeedForward(
                (net): ModuleList(
                  (0): GEGLU(
                    (proj): LoraInjectedLinear(
                      (linear): Linear(in_features=1280, out_features=10240, bias=True)
                      (lora_down): Linear(in_features=1280, out_features=1, bias=False)
                      (dropout): Dropout(p=0.1, inplace=False)
                      (lora_up): Linear(in_features=1, out_features=10240, bias=False)
                      (selector): Identity()
                    )
                  )
                  (1): Dropout(p=0.0, inplace=False)
                  (2): LoRACompatibleLinear(in_features=5120, out_features=1280, bias=True)
                )
              )
            )
          )
          (proj_out): LoRACompatibleConv(1280, 1280, kernel_size=(1, 1), stride=(1, 1))
…
          (conv_shortcut): LoRACompatibleConv(960, 640, kernel_size=(1, 1), stride=(1, 1))
        )
      )
      (upsamplers): ModuleList(
        (0): Upsample2D(
          (conv): LoRACompatibleConv(640, 640, kernel_size=(3, 3), stride=(1, 1), padding=(1, 1))
        )
      )
    )
    (3): CrossAttnUpBlock2D(
      (attentions): ModuleList(
        (0-2): 3 x Transformer2DModel(
          (norm): GroupNorm(32, 320, eps=1e-06, affine=True)
          (proj_in): LoRACompatibleConv(320, 320, kernel_size=(1, 1), stride=(1, 1))
          (transformer_blocks): ModuleList(
            (0): BasicTransformerBlock(
              (norm1): LayerNorm((320,), eps=1e-05, elementwise_affine=True)
              (attn1): Attention(
                (to_q): LoraInjectedLinear(
                  (linear): Linear(in_features=320, out_features=320, bias=False)
                  (lora_down): Linear(in_features=320, out_features=1, bias=False)
                  (dropout): Dropout(p=0.1, inplace=False)
                  (lora_up): Linear(in_features=1, out_features=320, bias=False)
                  (selector): Identity()
                )
                (to_k): LoraInjectedLinear(
                  (linear): Linear(in_features=320, out_features=320, bias=False)
                  (lora_down): Linear(in_features=320, out_features=1, bias=False)
                  (dropout): Dropout(p=0.1, inplace=False)
                  (lora_up): Linear(in_features=1, out_features=320, bias=False)
                  (selector): Identity()
                )
                (to_v): LoraInjectedLinear(
                  (linear): Linear(in_features=320, out_features=320, bias=False)
                  (lora_down): Linear(in_features=320, out_features=1, bias=False)
                  (dropout): Dropout(p=0.1, inplace=False)
                  (lora_up): Linear(in_features=1, out_features=320, bias=False)
                  (selector): Identity()
                )
                (to_out): ModuleList(
                  (0): LoraInjectedLinear(
                    (linear): Linear(in_features=320, out_features=320, bias=True)
                    (lora_down): Linear(in_features=320, out_features=1, bias=False)
                    (dropout): Dropout(p=0.1, inplace=False)
                    (lora_up): Linear(in_features=1, out_features=320, bias=False)
                    (selector): Identity()
                  )
                  (1): Dropout(p=0.0, inplace=False)
                )
              )
              (norm2): LayerNorm((320,), eps=1e-05, elementwise_affine=True)
              (attn2): Attention(
                (to_q): LoraInjectedLinear(
                  (linear): Linear(in_features=320, out_features=320, bias=False)
                  (lora_down): Linear(in_features=320, out_features=1, bias=False)
                  (dropout): Dropout(p=0.1, inplace=False)
                  (lora_up): Linear(in_features=1, out_features=320, bias=False)
                  (selector): Identity()
                )
                (to_k): LoraInjectedLinear(
                  (linear): Linear(in_features=768, out_features=320, bias=False)
                  (lora_down): Linear(in_features=768, out_features=1, bias=False)
                  (dropout): Dropout(p=0.1, inplace=False)
                  (lora_up): Linear(in_features=1, out_features=320, bias=False)
                  (selector): Identity()
                )
                (to_v): LoraInjectedLinear(
                  (linear): Linear(in_features=768, out_features=320, bias=False)
                  (lora_down): Linear(in_features=768, out_features=1, bias=False)
                  (dropout): Dropout(p=0.1, inplace=False)
                  (lora_up): Linear(in_features=1, out_features=320, bias=False)
                  (selector): Identity()
                )
                (to_out): ModuleList(
                  (0): LoraInjectedLinear(
                    (linear): Linear(in_features=320, out_features=320, bias=True)
                    (lora_down): Linear(in_features=320, out_features=1, bias=False)
                    (dropout): Dropout(p=0.1, inplace=False)
                    (lora_up): Linear(in_features=1, out_features=320, bias=False)
                    (selector): Identity()
                  )
                  (1): Dropout(p=0.0, inplace=False)
                )
              )
              (norm3): LayerNorm((320,), eps=1e-05, elementwise_affine=True)
              (ff): FeedForward(
                (net): ModuleList(
                  (0): GEGLU(
                    (proj): LoraInjectedLinear(
                      (linear): Linear(in_features=320, out_features=2560, bias=True)
                      (lora_down): Linear(in_features=320, out_features=1, bias=False)
                      (dropout): Dropout(p=0.1, inplace=False)
                      (lora_up): Linear(in_features=1, out_features=2560, bias=False)
                      (selector): Identity()
                    )
                  )
                  (1): Dropout(p=0.0, inplace=False)
                  (2): LoRACompatibleLinear(in_features=1280, out_features=320, bias=True)
                )
              )
            )
          )
          (proj_out): LoRACompatibleConv(320, 320, kernel_size=(1, 1), stride=(1, 1))
…
